src/model.ckpt (torch, 2520 bytes, 4 tensors)

fc1.weight f4 [16, 4]
0	0xbe88ae46	-0.2669546
1	0x3e5eb05c	0.21746963
2	0x3dc8b21f	0.09799599
3	0xbe221dcb	-0.15831678
4	0xbb945780	-0.0045270324
5	0x3d07cec0	0.033156157
6	0x3cb5e280	0.02220273
7	0xbeeb6aca	-0.4597991
8	0x3fbb3cfb	1.4627985
9	0x398eccf7	0.0002723706
10	0x3f2b1cac	0.66840625
11	0x3fbbaea5	1.4662672
12	0x3f3d235f	0.73882097
13	0xbe34ab7f	-0.17643546
14	0xbeaad6a7	-0.33366892
15	0x3fe6f63e	1.8043897
16	0xbf89dbdf	-1.0770224
17	0xbee9e38f	-0.45681426
18	0xbf266131	-0.6499205
19	0xbeede88c	-0.46466482
20	0x3fcadfdc	1.5849566
21	0xbed1ece1	-0.41001037
22	0xbf213377	-0.62969154
23	0x3fb63e57	1.4237775
24	0x3e193f3b	0.14965527
25	0x3e887be9	0.26657036
26	0xbe9d2629	-0.30693176
27	0xbe14ee6b	-0.14544074
28	0xbde68c40	-0.11257219
29	0xbeede7dc	-0.46465957
30	0x3e9588f2	0.29206043
31	0xbec092a2	-0.37611872
32	0x3fc0b22f	1.5054377
33	0x3ed9ecd7	0.42563507
34	0xbeda08f8	-0.42584968
35	0x3fbc9474	1.4732804
36	0xbf97b743	-1.1852802
37	0x3e54079a	0.20706025
38	0x3f25b2ed	0.64726144
39	0xbf4e578b	-0.8060233
40	0xbff1da09	-1.8894664
41	0xbeac5f40	-0.3366642
42	0x3e1a3187	0.15057956
43	0xbe2f1370	-0.17097259
44	0xbe9cc10a	-0.30616027
45	0xbece024c	-0.40236127
46	0xbe992806	-0.29913348
47	0x3e9fc83a	0.31207448
48	0x3fa6f1ea	1.3042576
49	0xbdb6c0a9	-0.08923466
50	0xbfb12f7b	-1.3842615
51	0x3ff5a547	1.9191064
52	0xbf8cad9a	-1.0990479
53	0x3ea6926c	0.32533586
54	0x3f0653b0	0.52471447
55	0xbf6ad662	-0.9173337
56	0xbec066e8	-0.3757851
57	0xbe43827f	-0.19092749
58	0x3d69fab8	0.05712387
59	0x3e690e63	0.22759394
60	0x3ccdd140	0.025124192
61	0xbeb6d20a	-0.35707122
62	0xbddbbe20	-0.10729623
63	0xbe8a24cc	-0.269812

fc1.bias f4 [16]
0	0xbe05cebe	-0.13067147
1	0xbeb27178	-0.34852195
2	0xbf365af8	-0.7123256
3	0xbeab87bf	-0.33502004
4	0x3fb93ccf	1.4471682
5	0xbe92534f	-0.28579184
6	0xbed3d6cc	-0.41374815
7	0xbede3532	-0.4339996
8	0xbf5be0e8	-0.85890055
9	0x3fb55323	1.4165996
10	0x3ff302e1	1.8985254
11	0x3aa6c600	0.0012723804
12	0xbf3aa28b	-0.7290427
13	0x3fb8257f	1.4386443
14	0xbdad230f	-0.084539525
15	0xbd153760	-0.036429763

fc2.weight f4 [2, 16]
0	0xbdb72862	-0.08943249
1	0x3d8397fc	0.06425473
2	0xbfb18dad	-1.3871361
3	0xbf388834	-0.7208283
4	0x40cac95d	6.3370805
5	0xbf89136a	-1.070905
6	0x3dcc4ae4	0.09975222
7	0x3d8387c4	0.064223796
8	0xbf925a0e	-1.1433733
9	0x3ff84116	1.9394863
10	0x41aedded	21.858362
11	0x3e376564	0.17909771
12	0xc016ff1d	-2.3593209
13	0x3fd4a588	1.6613016
14	0xbdf082fb	-0.117437325
15	0xbc5552a0	-0.013020188
16	0x3dbd991a	0.092577174
17	0xbd3178c0	-0.043328047
18	0x3fbe4e88	1.4867716
19	0x3f1b8dea	0.6076342
20	0xc0c8e0a3	-6.2774215
21	0x3f93de5a	1.1552231
22	0x3d926111	0.0714742
23	0xbdff01cc	-0.124515146
24	0x3f86d893	1.0534843
25	0xbff00a7e	-1.8753202
26	0xc1b04880	-22.0354
27	0x3b465900	0.003026545
28	0x40203871	2.503445
29	0xc0004554	-2.0042315
30	0x3e481489	0.19539084
31	0x3d060430	0.032718837

fc2.bias f4 [2]
0	0x3f5dc7b8	0.8663287
1	0xbf5ab386	-0.8543018
